2liteandquan/save/2lite.tflite (tflite, 408468 bytes, 4 tensors)

StatefulPartitionedCall/sequential/dense/MatMul/ReadVariableOp/transpose f4 [128, 784]
-0.005020976 0.06346234 -0.039768517 0.014508694 -0.080120295 0.025652409 -0.07583499 0.00079087913
0.001221329 -0.034872487 0.016567022 0.024616763 0.05654216 0.04103181 0.10302594 -0.009455453
0.010022849 -0.06467157 0.07369656 -0.06447977 -0.0629797 0.049995787 0.012673996 -0.019476376
0.006301634 0.027976602 0.013530523 0.043623894 -0.07141793 -0.02515816 0.080780216 0.02561538
0.04390102 -0.037723858 -0.022201605 -0.100921795 -0.08602697 -0.12032738 -0.05279715 0.012791292
-0.047206335 -0.11322096 0.065696515 0.19782273 0.10921928 0.0017437347 -0.059948992 0.03022879
-0.07231136 -0.0010453366 -0.028836384 -0.057701446 0.07638302 0.024670258 0.04131467 0.043964885
0.06567701 -0.07590524 -0.07875768 0.01339595 -0.048020884 -0.035789445 -0.15689634 -0.13583133
-0.07796536 -0.14918013 -0.09040491 -0.004825803 -0.0077931206 0.023559585 0.16917886 0.20984401
0.18706189 0.17978932 0.031783223 0.033814713 -0.052851975 -0.09393028 -0.14952776 -0.19399601
-0.17992592 -0.08422873 0.015222475 0.06838784 -0.03270706 0.050671257 0.17893079 -0.0911227
-0.19998653 -0.1657092 -0.15205848 -0.051651545 -0.08259307 -0.14384647 -0.2225166 -0.23227577
-0.039731603 0.028111987 0.095379315 0.1731986 0.089329936 0.17812507 0.15386122 0.06584927
0.06562268 -0.08978562 0.007854183 0.0399843 0.12697546 0.012167536 -0.10241076 -0.0006872043
-0.05545888 -0.055411268 0.12545677 0.11154287 0.07171548 0.014660284 -0.011390956 -0.06570339
0.019852862 -0.04819551 -0.090615906 -0.120359115 -0.06684302 0.071354255 0.14113615 0.053968716
0.19478504 0.071594864 0.16669957 0.0961722 -0.026172573 -0.0018476178 0.050528344 -0.121511355
-0.03792403 0.020891175 0.057125866 -0.109461896 0.012870587 -0.0031243563 0.1556852 -0.02348548
0.06892469 -0.10601979 0.09863221 0.034871306 -0.089894734 -0.10009879 -0.07783288 -0.13466753
-0.1393604 -0.08755858 0.009011375 0.013962242 -0.014389713 0.04113941 0.08866052 0.17903969
0.06856879 0.0445777 -0.056486696 -0.024264766 0.030600369 0.056686666 0.011981806 -0.01272444
0.018650144 -0.015761936 -0.17030984 -0.18628351 -0.15253326 -0.2229196 0.0068033594 -0.06820885
0.042243056 -0.08212808 -0.09449402 -0.055428345 -0.06653628 0.022771375 0.04557338 -0.06427714
0.063857436 0.12012967 0.075339414 0.056037046 0.06336541 -0.028028606 -0.15186395 -0.09574114
-0.12543365 0.08086325 -0.015446107 0.05353266 -0.06247818 0.021125734 -0.20687029 -0.08460022
-0.07553278 -0.03741258 -0.016895268 0.037103813 0.047726262 -0.0058060437 -0.11905216 -0.056713566
-0.01449756 -0.099148735 -0.07765895 -0.04951692 -0.1087162 -0.05848402 0.11630085 0.17206015
0.11313021 -0.14037248 -0.11453216 -0.1544714 -0.16451134 -0.06582823 0.01002317 0.010575258
0.03261017 -0.10815863 -0.068344176 -0.039739847 -0.020385895 -0.0606792 0.015535748 0.019886523
-0.033421136 0.10889218 0.04933385 -0.116986945 -0.03138535 -0.11724344 -0.2419538 -0.2514077
0.015162012 0.06751079 0.08854485 0.16489957 0.02145686 -0.07297394 -0.06857646 -0.30669734
-0.17820041 0.058228374 0.024985122 -0.019795861 -0.04652776 -0.20866728 0.06911496 0.087862335
00000000: 0087 a4bb 8bf8 813d 50e4 22bd e0b5 6d3c
00000010: 1c16 a4bd 0025 d23c 604f 9bbd 0053 4f3a
00000020: 0015 a03a 74d6 0ebd 90b7 873c 18a9 c93c
00000030: c198 673d f910 283d 44ff d23d 0beb 1abc
00000040: e036 243c 8772 84bd 39ee 963d f80d 84bd
00000050: 80fb 80bd 62c8 4c3d 98a6 4f3c ec8c 9fbc
00000060: f07d ce3b 302f e53c 20af 5d3c f8ae 323d
00000070: 9043 92bd 7c18 cebc 1970 a53d 58d7 d13c
00000080: 8ed1 333d 5584 1abd 24e0 b5bc 16b0 cebd
00000090: e82e b0bd 346e f6bd d341 58bd 9192 513c
000000a0: 6e5b 41bd 64e0 e7bd e58b 863d 0b92 4a3e
000000b0: 5cae df3d 078e e43a 138d 75bd 5ea2 f73c
000000c0: fa17 94bd ad03 89ba 483a ecbc 5a58 6cbd
000000d0: b36e 9c3d 4819 ca3c 9239 293d 8614 343d
000000e0: ab81 863d 3574 9bbd b54b a1bd b07a 5b3c
000000f0: 8cb1 44bd f497 12bd 6fa9 20be 5e17 0bbe
00000100: 4dac 9fbd adc2 18be 3626 b9bd c521 9ebb
00000110: 6f5d ffbb 0800 c13c 393d 2d3e 59e1 563e
00000120: 278d 3f3e b11a 383e 202f 023d 4c81 0a3d
00000130: 507b 58bd 855e c0bd ce1d 19be e4a6 46be
00000140: 803e 38be 1d80 acbd b067 793c ed0e 8c3d
00000150: d7f7 05bd aa8c 4f3d a239 373e 8a9e babd
00000160: 45c9 4cbe acaf 29be 38b5 1bbe 9290 53bd
00000170: 8e26 a9bd 7d4c 13be 64db 63be b3d9 6dbe
00000180: 9bbd 22bd 1c4b e63c 3b56 c33d f95a 313e
00000190: 9df2 b63d 6b66 363e cc8d 1d3e fbdb 863d
000001a0: 2f65 863d 86e1 b7bd d5ae 003c 94c6 233d
000001b0: db05 023e 585a 473c bcbc d1bd 8025 34ba
000001c0: da28 63bd edf6 62bd bd77 003e 9770 e43d
000001d0: 91df 923d b031 703c 22a1 3abc 808f 86bd
000001e0: 78a2 a23c a868 45bd d594 b9bd d77e f6bd
000001f0: fee4 88bd 2e22 923d ff85 103e 4d0e 5d3d
00000200: bb75 473e 54a0 923d 4bb3 2a3e eef5 c43d
00000210: dd67 d6bc c42b f2ba cff6 4e3d f2da f8bd
00000220: 3a56 1bbd f823 ab3c d0fc 693d 8f2d e0bd
00000230: 28df 523c 00c2 4cbb f16b 1f3e 9f64 c0bc
00000240: 6328 8d3d e720 d9bd afff c93d 37d5 0e3d
00000250: bb1a b8bd 9800 cdbd d866 9fbd 49e6 09be
00000260: 7eb4 0ebe ea51 b3bd 72a4 133c e3c1 643c
00000270: d5c2 6bbc cc81 283d a693 b53d 2e56 373e
00000280: cb6d 8c3d 1b97 363d 985e 67bd e7c6 c6bc
00000290: a0ad fa3c 4730 683d 564f 443c 2b7a 50bc
000002a0: 30c8 983c 2d1f 81bc b465 2ebe 1bc1 3ebe
000002b0: ae31 1cbe 0945 64be b7ee de3b 15b1 8bbd
000002c0: 0e07 2d3d c432 a8bd 1586 c1bd d508 63bd
000002d0: 2c44 88bd 098b ba3c 27ab 3a3d bca3 83bd
000002e0: b0c7 823d 8b06 f63d 8d4b 9a3d 1a87 653d
000002f0: b9c5 813d 3f9c e5bc 3982 1bbe ee13 c4bd
00000300: ae71 00be a29b a53d ab11 7dbc 1045 5b3d
00000310: 1fe9 7fbd e00f ad3c ced5 53be e142 adbd
00000320: eeb0 9abd ef3d 19bd f267 8abc 2bfa 173d
00000330: 9d7c 433d a040 bebb 9ed1 f3bd 7c4c 68bd
00000340: 2d87 6dbc 7e0e cbbd a80b 9fbd 41d2 4abd
00000350: 99a6 debd f18c 6fbd 242f ee3d 8930 303e
00000360: d0b0 e73d cebd 0fbe d68f eabd c02d 1ebe
00000370: a975 28be f3d0 86bd 3938 243c d943 2d3c
00000380: 3e92 053d 4682 ddbd 08f8 8bbd 40c6 22bd
00000390: 5200 a7bc c18a 78bd a689 7e3c 10e9 a23c
000003a0: 9ae4 08bd dd02 df3d 4b12 4a3d da96 efbd
000003b0: ed8d 00bd 541d f0bd bdc2 77be 83b8 80be
000003c0: 166a 783c 1943 8a3d 0157 b53d 6fdb 283e
000003d0: 4cc6 af3c 5c73 95bd d171 8cbd 6f07 9dbe
000003e0: 2b7a 36be e080 6e3d 99ad cc3c ee2a a2bc
000003f0: e493 3ebd e0ac 55be 258c 8d3d 2bf1 b33d

StatefulPartitionedCall/sequential/dense/MatMul_bias f4 [128]
-0.19702849 0.029733866 0.08717801 -0.009910326 0.015051233 0.07073393 -0.0158651 -0.08345415
0.22283134 0.026714683 0.051474884 0.031289767 -0.018168183 -0.039431438 0.036785603 -0.16568652
0.009038878 0.054952145 0.08169403 -0.096485935 0.0806083 0.052720215 -0.1371995 0.108643465
0.11431325 -0.04961782 0.09947854 -0.015831217 -0.020414274 -0.030916607 0.0086754775 0.05574855
0.13203764 0.12796445 -0.017625278 -0.027255474 -0.09418959 -0.06087753 0.111226775 0.06229109
0.19310375 -0.1404983 0.10886131 0.12050383 0.00010098875 0.025412377 0.07632294 0.10038549
-0.075146325 0.05582548 0.02852089 -0.02015502 -0.02927904 0.17230266 -0.08507165 0.073868416
0.090130456 -0.033007905 -0.002577905 0.09748887 0.02451687 -0.052145347 -0.11416607 0.090947054
0.116677694 0.04931626 -0.05640207 0.10906781 -0.18844222 0.1411118 0.031921238 -0.027282849
0.103137344 0.22264118 -0.06799286 -0.054812744 -0.1204351 -0.061106816 -0.065748125 -0.024450807
0.1898284 0.044975467 0.13520154 0.13556787 0.00057845307 -0.082091704 -0.1280852 0.068061315
0.076450415 -0.07363083 0.16314897 0.060088463 -0.024782993 0.019838877 -0.038960647 0.010297665
-0.055942304 -0.15142186 0.0695723 0.00073025667 0.008675071 0.071069285 -0.01831853 0.051115017
-0.03302228 0.057954203 -0.087813415 -0.1416304 0.0042747045 -0.021395048 -0.09622944 0.07464071
0.144048 0.0005823916 0.17554548 0.016839325 0.109027006 0.056626555 -0.14666475 0.017565079
-0.044774987 0.017362997 0.1294771 -0.04492735 0.123558715 -0.116141014 0.05899944 0.14429732
00000000: d6c1 49be 7094 f33c 628a b23d ec5e 22bc
00000010: 7299 763c f3dc 903d 87f7 81bc 02ea aabd
00000020: e62d 643e c0d8 da3c 54d7 523d b329 003d
00000030: 71d5 94bc dc82 21bd 80ac 163d baa9 29be
00000040: cd17 143c 8015 613d 334f a73d 6b9a c5bd
00000050: f715 a53d 27f1 573d 077e 0cbe 7780 de3d
00000060: 111d ea3d 0e3c 4bbd 68bb cb3d 78b0 81bc
00000070: d63b a7bc d344 fdbc 9723 0e3c 9758 643d
00000080: e034 073e 1d09 033e e362 90bc df46 dfbc
00000090: 79e6 c0bd b85a 79bd ddca e33d f124 7f3d
000000a0: fdbc 453e c9de 0fbe aef2 de3d b6ca f63d
000000b0: ecc9 d338 9e2d d03c 344f 9c3d e896 cd3d
000000c0: 51e6 99bd 42a9 643d a4a4 e93c 241c a5bc
000000d0: 99da efbc 1c70 303e 0c3a aebd 5348 973d
000000e0: 5196 b83d 4c33 07bd 12f2 28bb 3fa8 c73d
000000f0: 9ad7 c83c 5c96 55bd e7cf e9bd 7342 ba3d
00000100: b7f4 ee3d d9ff 493d db05 67bd f25e df3d
00000110: fff6 40be 9d7f 103e d8bf 023d 4880 dfbc
00000120: ac39 d33d 0dfc 633e d73f 8bbd 5483 60bd
00000130: ada6 f6bd 244b 7abd f4a6 86bd 0f4d c8bc
00000140: 6062 423e 3238 383d 4672 0a3e 4ed2 0a3e
00000150: 54a3 173a b21f a8bd c428 03be bb63 8b3d
00000160: 0992 9c3d c3cb 96bd 8610 273e 521f 763d
00000170: b405 cbbc 2485 a23c 3395 1fbd 8ab7 283c
00000180: c223 65bd 550e 1bbe ec7b 8e3d b26e 3f3a
00000190: e321 0e3c c68c 913d be10 96bc fb5d 513d
000001a0: 5f42 07bd 6361 6d3d 85d7 b3bd 8f07 11be
000001b0: d212 8c3b ab44 afbc f113 c5bd 3bdd 983d
000001c0: 5281 133e a4ab 183a 32c2 333e a0f2 893c
000001d0: 8d49 df3d 3ff1 673d 492f 16be a4e4 8f3c
000001e0: fa65 37bd d83c 8e3c a595 043e be05 38bd
000001f0: 5a0c fd3d 57db edbd 66a9 713d adc2 133e

StatefulPartitionedCall/sequential/dense_1/MatMul/ReadVariableOp/transpose f4 [10, 128]
-0.24150032 -0.3969013 -0.15968041 -0.080160655 0.077116705 0.14428477 0.4232858 -0.60922194
-0.14248267 0.075249515 -0.3844003 0.07488957 -0.39181185 -0.61407906 0.17697725 0.33290946
-0.28471783 0.010264945 -0.2947421 0.16150036 0.14754121 -0.25655565 0.1730688 -0.02797643
-0.35337973 -0.03950058 -0.6466509 -0.30105802 0.18439342 0.036335725 -0.32117918 -0.41164535
0.09167969 0.101542056 -0.16910945 -0.83006173 0.071219034 -0.43484533 -0.09565931 -0.35701075
-0.518228 -0.16018002 -0.23259287 -0.048046067 -0.06687337 -0.19370306 -0.4446746 0.2724295
0.028270124 0.1639997 0.32502615 -0.79305696 0.2524793 0.38323334 0.086468264 -0.02843975
0.2727498 -0.04872124 0.17477769 0.09537607 0.08152071 0.09428334 -0.4707509 -0.0680461
-0.12684108 -0.03346836 0.17309676 -0.57307506 0.066963844 0.335607 0.17380035 -0.3868956
0.07754811 -0.3158481 -0.4452681 -0.4158958 0.17818871 0.167814 0.055881817 -0.25903845
0.40517202 0.22178763 -0.14355169 -0.3995211 -0.38008037 -0.2398309 0.110305935 -0.21237646
0.057223625 0.003298871 0.13579218 0.17131618 -0.2238467 -0.31461123 0.07337217 0.209717
-0.386354 -0.39337775 -0.42506498 0.13993976 -0.5451859 -0.2616116 -0.24692355 0.1359766
-0.41584906 0.110801734 0.019996373 -0.09583222 0.2755605 0.07224018 -0.31077912 -0.45307076
-0.4524275 -0.71287006 -0.17375292 -0.40248206 0.17842148 -0.1741194 -0.094955094 -0.47665122
-0.046890903 0.04861279 -0.3285251 -0.107211635 -0.7351199 -0.36539474 0.04959018 0.24909386
0.16877908 0.1833646 0.22877453 -0.34895203 -0.38489857 -0.3704817 0.08427643 -0.056162402
0.17482439 0.3604747 0.33503765 -0.5092858 -0.21459898 0.3187519 -0.07627408 -0.12346002
0.18142168 0.21403363 0.3180562 -0.32543495 -0.3606524 -0.45749187 -0.12634088 0.22101036
0.023614675 0.043716192 -0.7093867 0.26861182 -0.5258899 0.041775145 0.12496995 -0.2691493
0.11435227 -0.13819708 0.101361565 0.22664079 -0.2646709 -0.26851702 -0.6753346 -0.06261826
-0.09633825 -0.017822875 0.2831401 0.669881 -0.52866286 0.011862729 0.3081248 -0.54188067
-0.12034469 0.022710057 -0.5109821 0.20602274 0.11737888 0.17806798 0.054267872 0.3154454
-0.037505053 -0.2796554 -0.37221733 0.12540267 -0.047240302 -0.3122578 -0.28630635 -0.41255277
-0.5006898 0.4709471 0.17977563 0.283931 -0.05715106 0.17488088 -0.27377108 -0.36542717
-0.3491498 -0.28500602 0.12042278 0.13012995 0.15942986 -0.47918162 0.039075527 0.22883488
0.34062272 0.11096333 0.35097948 0.3856834 -0.020468764 -0.2537722 -0.3707175 -0.019458912
-0.39684626 0.03054464 0.01569866 -0.616619 0.29276025 0.29616052 -0.8671055 0.16746248
0.30808756 0.059478756 0.43236548 0.07736038 0.23096654 -0.3568552 0.20918576 -0.41171488
-0.25892568 -0.15871178 -0.2883943 0.106990196 -0.045469366 -0.412949 0.0995028 0.3018486
0.17006531 -0.22865142 -0.36361483 0.03459776 -0.6287703 0.30377442 0.11562436 0.2502886
-0.18332684 -0.31793657 0.35396653 -0.02761855 0.2042051 0.22410534 -0.037594218 0.4134756
00000000: dc4b 77be a636 cbbe 4383 23be 452b a4bd
00000010: 5def 9d3d 63bf 133e ebb8 d83e f8f5 1bbf
00000020: fae6 11be 6b1c 9a3d 1ed0 c4be b45f 993d
00000030: 909b c8be 4934 1dbf 8639 353e 1c73 aa3e
00000040: 89c6 91be 4d2e 283c 70e8 96be 5a60 253e
00000050: 0b15 173e 435b 83be f338 313e d32e e5bc
00000060: 30ee b4be 5ccb 21bd ea8a 25bf 4724 9abe
00000070: a1d1 3c3e c5d4 143d 9971 a4be 2ec3 d2be
00000080: 90c2 bb3d 48f5 cf3d 072b 2dbe ed7e 54bf
00000090: 49db 913d 0ca4 debe 07e9 c3bd 1dca b6be
000000a0: 97aa 04bf 3b06 24be d32c 6ebe f4cb 44bd
000000b0: e8f4 88bd 185a 46be 64ac e3be e17b 8b3e
000000c0: bf96 e73c 8aef 273e d469 a63e c805 4bbf
000000d0: f844 813e 2937 c43e 4616 b13d 7bfa e8bc
000000e0: dda5 8b3e ec8f 47bd ecf8 323e 8754 c33d
000000f0: 54f4 a63d a017 c13d 4306 f1be c15b 8bbd
00000100: a1e2 01be 1e16 09bd 4740 313e 0cb5 12bf
00000110: 5724 893d aed4 ab3e b8f8 313e 2e17 c6be
00000120: 8bd1 9e3d d8b6 a1be 2efa e3be 4bf0 d4be
00000130: 1a77 363e 6fd7 2b3e 55e4 643d b0a0 84be
00000140: b572 cf3e 4c1c 633e 37ff 12be 088e ccbe
00000150: e599 c2be 3b96 75be 14e8 e13d 3779 59be
00000160: 5263 6a3d df31 583b 1b0d 0b3e 826d 2f3e
00000170: 1238 65be b914 a1be 2644 963d 0ec0 563e
00000180: 31d0 c5be cf68 c9be 1ea2 d9be 5e4c 0f3e
00000190: 4e91 0bbf f5f1 85be 87d9 7cbe 733d 0b3e
000001a0: 2bea d4be 05ec e23d 6fcf a33c af43 c4bd
000001b0: 4416 8d3e a9f2 933d 711e 9fbe e4f8 e7be
000001c0: 94a4 e7be a77e 36bf 49ec 31be 2112 cebe
000001d0: 1fb4 363e 5b4c 32be d177 c2bd a10b f4be
000001e0: ad10 40bd 341e 473d 7134 a8be c691 dbbd
000001f0: d130 3cbf 0515 bbbe 131f 4b3d 7612 7f3e
00000200: 6cd4 2c3e eec3 3b3e df43 6a3e d7a9 b2be
00000210: 6d11 c5be c7af bdbe 1f99 ac3d 8c0a 66bd
00000220: 2a05 333e 2490 b83e 0e8a ab3e 8e60 02bf
00000230: d6bf 5bbe 7333 a33e 9635 9cbd 9bd8 fcbd
00000240: 9bc6 393e a22b 5b3e 43d8 a23e 699f a6be
00000250: 6ea7 b8be 603c eabe 815f 01be 8a50 623e
00000260: 9073 c13c c00f 333d 5e9a 35bf 7d87 893e
00000270: b8a0 06bf 6a1c 2b3d 3ff0 ff3d f0cd 89be
00000280: 8631 ea3d 8983 0dbe a796 cf3d 8614 683e
00000290: f282 87be 107b 89be bae2 2cbf 013e 80bd
000002a0: fd4c c5bd 4701 92bc bdf7 903e 527d 2b3f
000002b0: 7356 07bf e45b 423c 89c2 9d3e b1b8 0abf
000002c0: 4777 f6bd 710a ba3c b9cf 02bf a0f7 523e
000002d0: 5764 f03d 7457 363e fd47 5e3d 0f82 a13e
000002e0: e69e 19bd fe2e 8fbe 4593 bebe 8f69 003e
000002f0: 0c7f 41bd 41e0 9fbe bf96 92be 1e3a d3be
00000300: 352d 00bf fa1f f13e 1a17 383e 675f 913e
00000310: 3b17 6abd f913 333e b92b 8cbe 4519 bbbe
00000320: c3c3 b2be 4fec 91be 38a0 f63d c940 053e
00000330: 9541 233e 4b57 f5be a90d 203d b153 6a3e
00000340: 1a66 ae3e be40 e33d 95b3 b33e 4b78 c53e
00000350: 1cae a7bc 6eee 81be afce bdbe 4c68 9fbc
00000360: 6f2f cbbe c138 fa3c 7a9a 803c beda 1dbf
00000370: ace4 953e 5aa2 973e a0fa 5dbf 497b 2b3e
00000380: a7bd 9d3e ff9f 733d 025f dd3e 1e6f 9e3d
00000390: 7e82 6c3e bab5 b6be cb34 563e 4bcc d2be
000003a0: e891 84be 5785 22be 6ba8 93be ad1d db3d
000003b0: 163e 3abd 0d6e d3be 20c8 cb3d e68b 9a3e
000003c0: 9a25 2e3e 9923 6abe b92b babe 61b6 0d3d
000003d0: 17f7 20bf 5288 9b3e 77cc ec3d d425 803e
000003e0: 08ba 3bbe 95c8 a2be 1a3b b53e 4c40 e2bc
000003f0: 241b 513e df7b 653e 65fc 19bd 13b3 d33e

StatefulPartitionedCall/sequential/dense_1/MatMul_bias f4 [10]
0.015678128 -0.0042633624 -0.089710236 -0.13502124 0.013998237 0.06050468 0.01956172 -0.1620238
0.14593127 0.07926897
00000000: 6b6f 803c adb3 8bbb 00ba b7bd 0243 0abe
00000010: dd58 653c c1d3 773d e63f a03c 91e9 25be
00000020: 026f 153e c557 a23d
