2liteandquan/save/quant.tflite (tflite, 103664 bytes, 4 tensors)

StatefulPartitionedCall/sequential/dense/MatMul/ReadVariableOp/transpose i1 [128, 784] scale=0.006254406 zero_point=0
-0.006254406 0.06254406 -0.037526436 0.012508812 -0.08130728 0.025017625 -0.07505287 0.0
0.0 -0.037526436 0.018763218 0.025017625 0.056289654 0.043780845 0.1000705 -0.012508812
0.012508812 -0.06254406 0.07505287 -0.06254406 -0.06254406 0.05003525 0.012508812 -0.018763218
0.006254406 0.025017625 0.012508812 0.043780845 -0.06879847 -0.025017625 0.08130728 0.025017625
0.043780845 -0.037526436 -0.025017625 -0.1000705 -0.08756169 -0.11883372 -0.05003525 0.012508812
-0.05003525 -0.11257931 0.06879847 0.200141 0.1063249 0.0 -0.06254406 0.03127203
-0.07505287 0.0 -0.03127203 -0.056289654 0.07505287 0.025017625 0.043780845 0.043780845
0.06879847 -0.07505287 -0.08130728 0.012508812 -0.05003525 -0.037526436 -0.15636015 -0.13759694
-0.07505287 -0.15010574 -0.08756169 -0.006254406 -0.006254406 0.025017625 0.16886897 0.2126498
0.18763219 0.18137778 0.03127203 0.03127203 -0.05003525 -0.093816094 -0.15010574 -0.1938866
-0.18137778 -0.08130728 0.012508812 0.06879847 -0.03127203 0.05003525 0.18137778 -0.093816094
-0.200141 -0.16261455 -0.15010574 -0.05003525 -0.08130728 -0.14385134 -0.22515862 -0.23141302
-0.037526436 0.025017625 0.093816094 0.17512338 0.08756169 0.17512338 0.15636015 0.06879847
0.06254406 -0.08756169 0.006254406 0.037526436 0.12508813 0.012508812 -0.1000705 0.0
-0.056289654 -0.056289654 0.12508813 0.11257931 0.06879847 0.012508812 -0.012508812 -0.06879847
0.018763218 -0.05003525 -0.08756169 -0.11883372 -0.06879847 0.06879847 0.14385134 0.056289654
0.1938866 0.06879847 0.16886897 0.093816094 -0.025017625 0.0 0.05003525 -0.11883372
-0.037526436 0.018763218 0.056289654 -0.11257931 0.012508812 0.0 0.15636015 -0.025017625
0.06879847 -0.1063249 0.1000705 0.037526436 -0.08756169 -0.1000705 -0.07505287 -0.13759694
-0.13759694 -0.08756169 0.006254406 0.012508812 -0.012508812 0.043780845 0.08756169 0.18137778
0.06879847 0.043780845 -0.056289654 -0.025017625 0.03127203 0.056289654 0.012508812 -0.012508812
0.018763218 -0.018763218 -0.16886897 -0.18763219 -0.15010574 -0.22515862 0.006254406 -0.06879847
0.043780845 -0.08130728 -0.093816094 -0.056289654 -0.06879847 0.025017625 0.043780845 -0.06254406
0.06254406 0.11883372 0.07505287 0.056289654 0.06254406 -0.025017625 -0.15010574 -0.093816094
-0.12508813 0.08130728 -0.012508812 0.056289654 -0.06254406 0.018763218 -0.2063954 -0.08756169
-0.07505287 -0.037526436 -0.018763218 0.037526436 0.05003525 -0.006254406 -0.11883372 -0.056289654
-0.012508812 -0.1000705 -0.07505287 -0.05003525 -0.1063249 -0.056289654 0.11883372 0.17512338
0.11257931 -0.13759694 -0.11257931 -0.15636015 -0.16261455 -0.06879847 0.012508812 0.012508812
0.03127203 -0.1063249 -0.06879847 -0.037526436 -0.018763218 -0.06254406 0.012508812 0.018763218
-0.03127203 0.1063249 0.05003525 -0.11883372 -0.03127203 -0.11883372 -0.24392185 -0.25017625
0.012508812 0.06879847 0.08756169 0.16261455 0.018763218 -0.07505287 -0.06879847 -0.3064659
-0.17512338 0.056289654 0.025017625 -0.018763218 -0.043780845 -0.2063954 0.06879847 0.08756169
00000000: ff0a fa02 f304 f400 00fa 0304 0907 10fe
00000010: 02f6 0cf6 f608 02fd 0104 0207 f5fc 0d04
00000020: 07fa fcf0 f2ed f802 f8ee 0b20 1100 f605
00000030: f400 fbf7 0c04 0707 0bf4 f302 f8fa e7ea
00000040: f4e8 f2ff ff04 1b22 1e1d 0505 f8f1 e8e1
00000050: e3f3 020b fb08 1df1 e0e6 e8f8 f3e9 dcdb
00000060: fa04 0f1c 0e1c 190b 0af2 0106 1402 f000
00000070: f7f7 1412 0b02 fef5 03f8 f2ed f50b 1709
00000080: 1f0b 1b0f fc00 08ed fa03 09ee 0200 19fc
00000090: 0bef 1006 f2f0 f4ea eaf2 0102 fe07 0e1d
000000a0: 0b07 f7fc 0509 02fe 03fd e5e2 e8dc 01f5
000000b0: 07f3 f1f7 f504 07f6 0a13 0c09 0afc e8f1
000000c0: ec0d fe09 f603 dff2 f4fa fd06 08ff edf7
000000d0: fef0 f4f8 eff7 131c 12ea eee7 e6f5 0202
000000e0: 05ef f5fa fdf6 0203 fb11 08ed fbed d9d8
000000f0: 020b 0e1a 03f4 f5cf e409 04fd f9df 0b0e

StatefulPartitionedCall/sequential/dense/MatMul_bias f4 [128]
-0.19702849 0.029733866 0.08717801 -0.009910326 0.015051233 0.07073393 -0.0158651 -0.08345415
0.22283134 0.026714683 0.051474884 0.031289767 -0.018168183 -0.039431438 0.036785603 -0.16568652
0.009038878 0.054952145 0.08169403 -0.096485935 0.0806083 0.052720215 -0.1371995 0.108643465
0.11431325 -0.04961782 0.09947854 -0.015831217 -0.020414274 -0.030916607 0.0086754775 0.05574855
0.13203764 0.12796445 -0.017625278 -0.027255474 -0.09418959 -0.06087753 0.111226775 0.06229109
0.19310375 -0.1404983 0.10886131 0.12050383 0.00010098875 0.025412377 0.07632294 0.10038549
-0.075146325 0.05582548 0.02852089 -0.02015502 -0.02927904 0.17230266 -0.08507165 0.073868416
0.090130456 -0.033007905 -0.002577905 0.09748887 0.02451687 -0.052145347 -0.11416607 0.090947054
0.116677694 0.04931626 -0.05640207 0.10906781 -0.18844222 0.1411118 0.031921238 -0.027282849
0.103137344 0.22264118 -0.06799286 -0.054812744 -0.1204351 -0.061106816 -0.065748125 -0.024450807
0.1898284 0.044975467 0.13520154 0.13556787 0.00057845307 -0.082091704 -0.1280852 0.068061315
0.076450415 -0.07363083 0.16314897 0.060088463 -0.024782993 0.019838877 -0.038960647 0.010297665
-0.055942304 -0.15142186 0.0695723 0.00073025667 0.008675071 0.071069285 -0.01831853 0.051115017
-0.03302228 0.057954203 -0.087813415 -0.1416304 0.0042747045 -0.021395048 -0.09622944 0.07464071
0.144048 0.0005823916 0.17554548 0.016839325 0.109027006 0.056626555 -0.14666475 0.017565079
-0.044774987 0.017362997 0.1294771 -0.04492735 0.123558715 -0.116141014 0.05899944 0.14429732
00000000: d6c1 49be 7094 f33c 628a b23d ec5e 22bc
00000010: 7299 763c f3dc 903d 87f7 81bc 02ea aabd
00000020: e62d 643e c0d8 da3c 54d7 523d b329 003d
00000030: 71d5 94bc dc82 21bd 80ac 163d baa9 29be
00000040: cd17 143c 8015 613d 334f a73d 6b9a c5bd
00000050: f715 a53d 27f1 573d 077e 0cbe 7780 de3d
00000060: 111d ea3d 0e3c 4bbd 68bb cb3d 78b0 81bc
00000070: d63b a7bc d344 fdbc 9723 0e3c 9758 643d
00000080: e034 073e 1d09 033e e362 90bc df46 dfbc
00000090: 79e6 c0bd b85a 79bd ddca e33d f124 7f3d
000000a0: fdbc 453e c9de 0fbe aef2 de3d b6ca f63d
000000b0: ecc9 d338 9e2d d03c 344f 9c3d e896 cd3d
000000c0: 51e6 99bd 42a9 643d a4a4 e93c 241c a5bc
000000d0: 99da efbc 1c70 303e 0c3a aebd 5348 973d
000000e0: 5196 b83d 4c33 07bd 12f2 28bb 3fa8 c73d
000000f0: 9ad7 c83c 5c96 55bd e7cf e9bd 7342 ba3d
00000100: b7f4 ee3d d9ff 493d db05 67bd f25e df3d
00000110: fff6 40be 9d7f 103e d8bf 023d 4880 dfbc
00000120: ac39 d33d 0dfc 633e d73f 8bbd 5483 60bd
00000130: ada6 f6bd 244b 7abd f4a6 86bd 0f4d c8bc
00000140: 6062 423e 3238 383d 4672 0a3e 4ed2 0a3e
00000150: 54a3 173a b21f a8bd c428 03be bb63 8b3d
00000160: 0992 9c3d c3cb 96bd 8610 273e 521f 763d
00000170: b405 cbbc 2485 a23c 3395 1fbd 8ab7 283c
00000180: c223 65bd 550e 1bbe ec7b 8e3d b26e 3f3a
00000190: e321 0e3c c68c 913d be10 96bc fb5d 513d
000001a0: 5f42 07bd 6361 6d3d 85d7 b3bd 8f07 11be
000001b0: d212 8c3b ab44 afbc f113 c5bd 3bdd 983d
000001c0: 5281 133e a4ab 183a 32c2 333e a0f2 893c
000001d0: 8d49 df3d 3ff1 673d 492f 16be a4e4 8f3c
000001e0: fa65 37bd d83c 8e3c a595 043e be05 38bd
000001f0: 5a0c fd3d 57db edbd 66a9 713d adc2 133e

StatefulPartitionedCall/sequential/dense_1/MatMul/ReadVariableOp/transpose i1 [10, 128] scale=0.0075234384 zero_point=0
-0.24075003 -0.39874223 -0.15799221 -0.08275782 0.07523438 0.14294533 0.42131254 -0.6093985
-0.14294533 0.07523438 -0.38369536 0.07523438 -0.3912188 -0.61692196 0.18056253 0.3310313
-0.28589067 0.0075234384 -0.2934141 0.15799221 0.15046877 -0.2557969 0.17303908 -0.030093754
-0.3536016 -0.03761719 -0.6470157 -0.30093753 0.18808596 0.03761719 -0.32350785 -0.41378912
0.09028126 0.0978047 -0.16551565 -0.82757825 0.06771094 -0.43635944 -0.0978047 -0.3536016
-0.51911724 -0.15799221 -0.2332266 -0.04514063 -0.06771094 -0.1956094 -0.44388285 0.27084377
0.030093754 0.16551565 0.32350785 -0.78996104 0.2557969 0.38369536 0.08275782 -0.030093754
0.27084377 -0.04514063 0.17303908 0.0978047 0.08275782 0.0978047 -0.4739766 -0.06771094
-0.12789845 -0.030093754 0.17303908 -0.57178134 0.06771094 0.33855474 0.17303908 -0.38369536
0.07523438 -0.31598443 -0.44388285 -0.41378912 0.18056253 0.16551565 0.052664068 -0.2557969
0.40626568 0.21817972 -0.14294533 -0.39874223 -0.38369536 -0.24075003 0.112851575 -0.21065627
0.060187507 0.0 0.13542189 0.17303908 -0.22570315 -0.31598443 0.07523438 0.21065627
-0.38369536 -0.3912188 -0.42131254 0.14294533 -0.54168755 -0.26332036 -0.24827346 0.13542189
-0.41378912 0.112851575 0.022570316 -0.0978047 0.27836722 0.07523438 -0.30846098 -0.4514063
-0.4514063 -0.7147266 -0.17303908 -0.39874223 0.18056253 -0.17303908 -0.0978047 -0.4739766
-0.04514063 0.04514063 -0.3310313 -0.105328135 -0.73729694 -0.36864847 0.052664068 0.24827346
0.16551565 0.18056253 0.22570315 -0.34607816 -0.38369536 -0.36864847 0.08275782 -0.052664068
0.17303908 0.36112505 0.33855474 -0.5115938 -0.21817972 0.31598443 -0.07523438 -0.120375015
0.18056253 0.21065627 0.31598443 -0.32350785 -0.36112505 -0.45892975 -0.12789845 0.21817972
0.022570316 0.04514063 -0.7072032 0.27084377 -0.5266407 0.04514063 0.12789845 -0.27084377
0.112851575 -0.13542189 0.0978047 0.22570315 -0.26332036 -0.27084377 -0.6771095 -0.060187507
-0.0978047 -0.015046877 0.28589067 0.669586 -0.5266407 0.015046877 0.30846098 -0.54168755
-0.120375015 0.022570316 -0.5115938 0.20313284 0.120375015 0.18056253 0.052664068 0.31598443
-0.03761719 -0.27836722 -0.36864847 0.12789845 -0.04514063 -0.31598443 -0.28589067 -0.41378912
-0.5040704 0.4739766 0.18056253 0.28589067 -0.060187507 0.17303908 -0.27084377 -0.36864847
-0.34607816 -0.28589067 0.120375015 0.12789845 0.15799221 -0.48150006 0.03761719 0.22570315
0.33855474 0.112851575 0.3536016 0.38369536 -0.022570316 -0.2557969 -0.36864847 -0.022570316
-0.39874223 0.030093754 0.015046877 -0.61692196 0.2934141 0.2934141 -0.8651954 0.16551565
0.30846098 0.060187507 0.428836 0.07523438 0.2332266 -0.3536016 0.21065627 -0.41378912
-0.2557969 -0.15799221 -0.28589067 0.105328135 -0.04514063 -0.41378912 0.0978047 0.30093753
0.17303908 -0.22570315 -0.36112505 0.03761719 -0.63196886 0.30093753 0.112851575 0.24827346
-0.18056253 -0.31598443 0.3536016 -0.030093754 0.20313284 0.22570315 -0.03761719 0.41378912
00000000: e0cb ebf5 0a13 38af ed0a cd0a ccae 182c
00000010: da01 d915 14de 17fc d1fb aad8 1905 d5c9
00000020: 0c0d ea92 09c6 f3d1 bbeb e1fa f7e6 c524
00000030: 0416 2b97 2233 0bfc 24fa 170d 0b0d c1f7
00000040: effc 17b4 092d 17cd 0ad6 c5c9 1816 07de
00000050: 361d edcb cde0 0fe4 0800 1217 e2d6 0a1c
00000060: cdcc c813 b8dd df12 c90f 03f3 250a d7c4
00000070: c4a1 e9cb 18e9 f3c1 fa06 d4f2 9ecf 0721
00000080: 1618 1ed2 cdcf 0bf9 1730 2dbc e32a f6f0
00000090: 181c 2ad5 d0c3 ef1d 0306 a224 ba06 11dc
000000a0: 0fee 0d1e dddc a6f8 f3fe 2659 ba02 29b8
000000b0: f003 bc1b 1018 072a fbdb cf11 fad6 dac9
000000c0: bd3f 1826 f817 dccf d2da 1011 15c0 051e
000000d0: 2d0f 2f33 fdde cffd cb04 02ae 2727 8d16
000000e0: 2908 390a 1fd1 1cc9 deeb da0e fac9 0d28
000000f0: 17e2 d005 ac28 0f21 e8d6 2ffc 1b1e fb37

StatefulPartitionedCall/sequential/dense_1/MatMul_bias f4 [10]
0.015678128 -0.0042633624 -0.089710236 -0.13502124 0.013998237 0.06050468 0.01956172 -0.1620238
0.14593127 0.07926897
00000000: 6b6f 803c adb3 8bbb 00ba b7bd 0243 0abe
00000010: dd58 653c c1d3 773d e63f a03c 91e9 25be
00000020: 026f 153e c557 a23d
